…
Tue 22 Jul 2025 10:01:06 INFO 
====Testing====
baby
The number of users: 19445
Average actions of users: 1.1150424273592183
The number of items: 5549
Average actions of items: 3.907370697422959
The number of inters: 21682
The sparsity of the dataset: 99.97990552482683%
Tue 22 Jul 2025 10:01:13 INFO 

=================================


Tue 22 Jul 2025 10:01:13 INFO =========1/1: Parameters:['trans', 'e_loss', 'ris_lambda', 'bm_temp', 'bm_loss', 'um_loss', 'um_temp', 'ris_adj_lambda', 'seed']=(2, 0.01, 0.5, 0.4, 0.01, 0.1, 0.4, 0.2, 999)=======
Tue 22 Jul 2025 10:01:25 INFO DGUMA(
  (image_embedding): Embedding(7050, 4096)
  (text_embedding): Embedding(7050, 384)
  (gcnLayers): Sequential(
    (0): GCNLayer()
  )
  (image_reduce_dim): Linear(in_features=4096, out_features=64, bias=True)
  (image_trans_dim): Sequential(
    (0): Linear(in_features=64, out_features=64, bias=True)
    (1): Sigmoid()
  )
  (image_space_trans): Sequential(
    (0): Linear(in_features=4096, out_features=64, bias=True)
    (1): Sequential(
      (0): Linear(in_features=64, out_features=64, bias=True)
      (1): Sigmoid()
    )
  )
  (text_reduce_dim): Linear(in_features=384, out_features=64, bias=True)
  (text_trans_dim): Sequential(
    (0): Linear(in_features=64, out_features=64, bias=True)
    (1): Sigmoid()
  )
  (text_space_trans): Sequential(
    (0): Linear(in_features=384, out_features=64, bias=True)
    (1): Sequential(
      (0): Linear(in_features=64, out_features=64, bias=True)
      (1): Sigmoid()
    )
  )
  (separate_coarse): Sequential(
    (0): Linear(in_features=64, out_features=64, bias=True)
    (1): Tanh()
    (2): Linear(in_features=64, out_features=1, bias=False)
  )
  (softmax): Softmax(dim=0)
  (image_behavior): Sequential(
    (0): Linear(in_features=64, out_features=64, bias=True)
    (1): Sigmoid()
  )
  (text_behavior): Sequential(
    (0): Linear(in_features=64, out_features=64, bias=True)
    (1): Sigmoid()
  )
  (edgeDropper): SpAdjDropEdge()
  (image_trans): Sequential(
    (0): Linear(in_features=4096, out_features=64, bias=True)
    (1): Sequential(
      (0): Linear(in_features=64, out_features=64, bias=True)
      (1): Sigmoid()
    )
  )
  (text_trans): Sequential(
    (0): Linear(in_features=384, out_features=64, bias=True)
    (1): Sequential(
      (0): Linear(in_features=64, out_features=64, bias=True)
      (1): Sigmoid()
    )
  )
  (dropout): Dropout(p=0.1, inplace=False)
  (leakyrelu): LeakyReLU(negative_slope=0.2)
)
Trainable parameters: 38565314
Tue 22 Jul 2025 10:01:35 INFO ======lr: 0.001
Tue 22 Jul 2025 10:01:35 INFO epoch 0 training [time: 9.56s, train loss: 290.9442]
Tue 22 Jul 2025 10:01:38 INFO epoch 0 evaluating [time: 1.21s, valid_score: 0.055800]
…
